Deep Learning Step by Step/03_pytorch_computervision/models/03_pytorch_cvmodel2.pth (torch, 34848 bytes, 10 tensors)

block1.0.weight f4 [10, 1, 3, 3]
0	0x3ea3a64b	0.3196281
1	0x3e99462b	0.29936346
2	0xbec20c99	-0.37900236
3	0x3e73a23b	0.23792355
4	0x3e1c075f	0.15237187
5	0xbd28cb80	-0.041209698
6	0xbebf45c8	-0.37357926
7	0x3e3a2df0	0.18181586
8	0x3eab078a	0.3340419
9	0xbe6a26b3	-0.22866325
10	0x3eb28ab4	0.34871447
11	0xbdb97fb8	-0.090575635
12	0x3e84236f	0.25808284
13	0x3ebf248b	0.37332568
14	0x3de2156c	0.11039242
15	0xbdddaec4	-0.108243495
16	0x3ee6fde0	0.45115566
17	0x3d0d3447	0.034473684
18	0xbeae20ca	-0.3400939
19	0xbdfdb3eb	-0.12387832
20	0x399227ed	0.00027877037
21	0xbf25aaa1	-0.64713484
22	0xbf1fdaaa	-0.6244303
23	0x3e8ae4eb	0.27127776
24	0xbf503e85	-0.813454
25	0xbf2a8063	-0.6660215
26	0xbdf89562	-0.121378675
27	0xbf41a036	-0.7563509
28	0xbf8876c6	-1.0661247
29	0xbf4cc7b2	-0.7999221
30	0x3e4fa097	0.20276104
31	0xbf530b84	-0.82439446
32	0x3d2807d8	0.041023105
33	0x3ea0637f	0.3132591
34	0xbc8c7bd5	-0.017148891
35	0x3efd1b94	0.49435103
36	0xbda25500	-0.07926369
37	0x3ec0b1c5	0.37635627
38	0x3bc70692	0.0060737813
39	0xbe82122e	-0.25404495
40	0x3e94618d	0.28980675
41	0xbe20582f	-0.1565864
42	0xbdadb1bb	-0.08481165
43	0x3e94e984	0.29084408
44	0x3e0786cf	0.13235019
45	0xbe10a47e	-0.14125249
46	0x3e4469d3	0.19180994
47	0x3d7d7c35	0.06188603
48	0x3e2eab7b	0.17057602
49	0xbe519655	-0.20467503
50	0xbea8c387	-0.32961676
51	0xbe018ee3	-0.12652163
52	0xbe82d6f7	-0.2555463
53	0x3e857d3c	0.2607211
54	0x3e023cf0	0.12718558
55	0x3ddd03c9	0.107917376
56	0x3cadd813	0.021221196
57	0x3d7c7916	0.061638914
58	0x3e548479	0.2075366
59	0xbe2c003e	-0.16796967
60	0x3b5157c7	0.0031943189
61	0xbed7b4f8	-0.42130256
62	0x3d50a659	0.05093989
63	0xbd8bf298	-0.068333805
64	0x3dc4236e	0.0957707
65	0xbe1c013d	-0.15234847
66	0x3eb57aa7	0.3544514
67	0xbe9bcf14	-0.30431426
68	0xbeba8a39	-0.3643358
69	0xbe33ce71	-0.1755922
70	0x3ed0fe56	0.40819043
71	0x3e561545	0.20906551
72	0x3ef46785	0.4773523
73	0xbe88cc73	-0.26718482
74	0xbed18afc	-0.4092635
75	0xbe8828a6	-0.26593512
76	0xbeb35a0c	-0.35029638
77	0x3d845a85	0.06462578
78	0x3ea2c62b	0.31791815
79	0x3edd418b	0.43214068
80	0xbda950ad	-0.08267341
81	0xbe68ae06	-0.22722635
82	0x3e3294bf	0.17439555
83	0xbe0b444c	-0.13600272
84	0x3e4ccc1b	0.19999735
85	0xbda6fc4c	-0.081535906
86	0x3e409e9b	0.18810503
87	0xbe84b26b	-0.25917372
88	0xbe2ca7b4	-0.16860849
89	0x3dcbc8be	0.09950398

block1.0.bias f4 [10]
0	0x3dae291a	0.08503933
1	0x3deb0fcb	0.11477622
2	0x3e8ea9bb	0.2786387
3	0x3e5bc064	0.2146011
4	0x3d9578f9	0.07298464
5	0xbe49eb0a	-0.19718567
6	0x3e0b4fea	0.13604704
7	0xbd4d4889	-0.050118003
8	0xbdb35df0	-0.087581515
9	0xbea6b437	-0.32559368

block1.2.weight f4 [10, 10, 3, 3]
0	0x3d3d4250	0.04620582
1	0xba1abac7	-0.0005902466
2	0xbce7e707	-0.028308405
3	0xbd909a62	-0.07060696
4	0xbe1f0882	-0.15530589
5	0xbe33232b	-0.17493884
6	0xbd0922b0	-0.033480346
7	0xbe538aff	-0.20658492
8	0xbe37678f	-0.17910598
9	0xbd87888c	-0.06617841
10	0xbbdf51cd	-0.0068151713
11	0xbd73ca01	-0.059518818
12	0xbdaf6cd8	-0.08565682
13	0xbe919288	-0.28432107
14	0xbe5b1dd3	-0.21398096
15	0xbd1566a1	-0.036474828
16	0xbe398404	-0.18116766
17	0xbe8497f0	-0.2589717
18	0xbcd2b3b3	-0.025720453
19	0x3cc10188	0.0235603
20	0x3e05d060	0.1306777
21	0x3d76c43b	0.060245734
22	0x3e51f2ce	0.20502779
23	0x3e36e501	0.17860796
24	0xbdb539e0	-0.088489294
25	0x3c777e77	0.015105835
26	0x3df6401a	0.12023945
27	0xbe12a1f0	-0.14319587
28	0xbcd635f2	-0.02614877
29	0xbe50cc0f	-0.20390342
30	0x3c9dfaba	0.019284595
31	0xbcccd60a	-0.025004406
32	0xbe3fc527	-0.18727551
33	0x3e075691	0.13216616
34	0xbc95b82e	-0.0182763
35	0xbba4f9f9	-0.005034682
36	0xbe0fb550	-0.14034009
37	0xbe288af7	-0.16459261
38	0xbd087053	-0.033310246
39	0xbd9b340e	-0.07578288
40	0xbd3b5355	-0.04573377
41	0xbe29bab8	-0.16575134
42	0x3dbe0347	0.09277969
43	0xbe189ebc	-0.14904302
44	0xbd813a72	-0.06309976
45	0x3cb71cc9	0.022352593
46	0x3d5ec76e	0.05438941
47	0x3dad8887	0.08473306
48	0x3dc423af	0.095771186
49	0xbdab04a7	-0.08350497
50	0x3ce16839	0.027515518
51	0xbd389ee7	-0.045073416
52	0xbc515b9c	-0.012778189
53	0xbd9da36d	-0.076971866
54	0x3e09b3a2	0.1344743
55	0xbd8508b7	-0.06495803
56	0x3cc28328	0.02374418
57	0x3ddf6297	0.109074764
58	0x3d759ee4	0.059965983
59	0xbcda0824	-0.02661521
60	0x3dc8c837	0.09803813
61	0x3ca0f978	0.019650206
62	0x3babd55d	0.0052439407
63	0xbda15faa	-0.078795746
64	0x3d3ecdd1	0.046583
65	0xbc06bca0	-0.008223683
66	0xbd1f2109	-0.038849864
67	0x3db67216	0.08908479
68	0x3c4145aa	0.011796394
69	0xbd020d34	-0.031750873
70	0xbd728819	-0.059211824
71	0xbcae5fc1	-0.021285893
72	0x3d8a1980	0.06743145
73	0xbcd406b1	-0.025882097
74	0xbd4cd7d4	-0.050010517
75	0xbd30a725	-0.04312815
76	0xbd900fa2	-0.07034232
77	0x3d6fe638	0.058569163
78	0x3e0187f7	0.12649523
79	0xbda0edfe	-0.078578934
80	0xbc29d87d	-0.010366556
81	0x3d5f0967	0.054452326
82	0x3c9c6eea	0.019095857
83	0xbd19d6ca	-0.037558354
84	0x3d615a0e	0.055017523
85	0x3d62e4c5	0.055393953
86	0x3d21861f	0.03943455
87	0xbc97bcd7	-0.018522663
88	0xbce4a8c4	-0.027912505
89	0x3c38b13d	0.011272726
90	0xbb90e2dd	-0.0044215755
91	0xbb827012	-0.003980645
92	0x3dcf807d	0.10131929
93	0x3dc12911	0.09431661
94	0x3cc6df37	0.024276359
95	0x3c97c21e	0.01852518
96	0xbd00aabd	-0.03141283
97	0xbcb6d605	-0.02231885
98	0x3bf0173a	0.0073269876
99	0x3d642653	0.05570061
100	0xbce7dcf8	-0.028303608
101	0x3ab037fa	0.0013444417
102	0x3dd1fd22	0.102533594
103	0x3d98ec3d	0.07466934
104	0x3c88a78f	0.01668146
105	0xbe0af06f	-0.1356828
106	0xbde333c9	-0.110938616
107	0xbe07fc24	-0.13279778
108	0xbd144a2d	-0.036203552
109	0x3d01a62f	0.031652626
110	0x3d818555	0.06324259
111	0x3d2ca5a5	0.04215016
112	0xbdca3f98	-0.09875411
113	0xbd8d231a	-0.06891461
114	0xbcc85730	-0.024455637
115	0x3ddc0df2	0.10744847
116	0x3c97af26	0.018516134
117	0xbb142fc9	-0.002261149
118	0x3d4b18d3	0.04958422
119	0xbd0fdcff	-0.035122868
120	0xbd85e982	-0.06538679
121	0x3d9d49bf	0.076800816
122	0xbd51ac51	-0.051189724
123	0xbcb0673a	-0.021533597
124	0xbddf82fe	-0.10913657
125	0x3d94641e	0.07245658
126	0x3da4f993	0.08055415
127	0x3d5bc8ce	0.0536583
128	0xbd8f0a99	-0.06984443
129	0xbe0d5c4c	-0.1380474
130	0xbdd6331f	-0.10458969
131	0x3d7b8936	0.06141015
132	0x3bde07f6	0.0067758514
133	0x3d76654d	0.0601552
134	0x3cd00fed	0.025398219
135	0x3cda999c	0.026684575
136	0xba86414d	-0.001024285
137	0xbda3f8fc	-0.080064744
138	0xbdb88b3e	-0.09010933
139	0xbdc9ad21	-0.09847475
140	0x3d31d653	0.043417286
141	0xbd534062	-0.051575072
142	0xbcaf4d9c	-0.021399312
143	0xbd783bc3	-0.06060387
144	0xbcf9c3e7	-0.030488921
145	0xbdb3c6ea	-0.08778174
146	0xbd94d46a	-0.07267077
147	0x3d420be0	0.047374606
148	0xbc98e6c6	-0.018664729
149	0x3da04477	0.07825559
150	0xbc057b61	-0.008147092
151	0xbd862373	-0.0654973
152	0xbc397cc6	-0.011321252
153	0xbd4a723b	-0.049425345
154	0xbcfcecab	-0.03087457
155	0xbdce8f18	-0.10085887
156	0x3d6e82bc	0.058230147
157	0xbd9304af	-0.07178628
158	0x3d64bd30	0.055844486
159	0x3d3da168	0.046296507
160	0x3d9e8f4e	0.07742177
161	0xbda3dd64	-0.08001211
162	0x3da52429	0.080635376
163	0xbd262710	-0.040564597
164	0x3d43317e	0.04765462
165	0x3dbd1444	0.09232381
166	0xbc7fff9e	-0.015624909
167	0xbae01b82	-0.0017098042
168	0xbcd5c51b	-0.026094964
169	0xbdb06087	-0.08612161
170	0x3d5248a8	0.05133882
171	0xbdd64cd0	-0.104638696
172	0x3d85f146	0.0654016
173	0x3da18b64	0.07887915
174	0x3dcc2a20	0.09968972
175	0xbccc07f6	-0.02490614
176	0xbdb15ec2	-0.08660652
177	0x3cc2246f	0.023699014
178	0x3d6e844b	0.058231633
179	0xbdd6da39	-0.104908414
180	0xbcd2f919	-0.025753545
181	0xbd862e0c	-0.065517515
182	0xbc4ab4b0	-0.012372181
183	0xbd52b7ec	-0.051444933
184	0xbd2ad857	-0.041710224
185	0xbcf15cdc	-0.029463224
186	0xbdcfebd5	-0.10152403
187	0x3db0a8fb	0.086259805
188	0x3db141e2	0.08655144
189	0xbc8b31dc	-0.016991548
190	0xbc4ec7c2	-0.012620868
191	0xbd32f071	-0.043686334
192	0xbdc62965	-0.09675864
193	0xbdd2b973	-0.10289278
194	0x3d26d8e3	0.040734183
195	0xbd825306	-0.06363492
196	0xbd8cf6a7	-0.06882983
197	0xbbf89687	-0.0075863036
198	0xbd272eb1	-0.040816013
199	0xbd24cca5	-0.040234227
200	0xbb29c558	-0.002590498
201	0xbcb55222	-0.02213389
202	0xbd1b690e	-0.037941985
203	0xbd679451	-0.05653793
204	0xbdb23afe	-0.08702658
205	0x3db29ec8	0.08721691
206	0xbd2bd9bf	-0.041955706
207	0x3cbd8e95	0.023139277
208	0xbd26e68d	-0.040747214
209	0x3b15f10d	0.0022879273
210	0x3dbcdd42	0.09221889
211	0x3d40470c	0.046942756
212	0xbdb6c1fe	-0.0892372
213	0x3d036b5a	0.0320848
214	0x3db9916e	0.09060942
215	0x3c8e5ee9	0.017379241
216	0x3d8fa707	0.0701428
217	0x3dd3c602	0.10340501
218	0xbc8a3b0b	-0.016873857
219	0x3ca6cb01	0.020360472
220	0xbd95932e	-0.07303463
221	0xbc99c54f	-0.018770842
222	0x3d982eb2	0.074307814
223	0x3d50dcd7	0.05099186
224	0xbd9440ae	-0.07238899
225	0xbdad195a	-0.08452101
226	0xbd937dd7	-0.072017364
227	0xbdd503d5	-0.104011215
228	0xbda6947c	-0.0813379
229	0xbcd5b033	-0.026084995
230	0x3d92137b	0.07132622
231	0x3c909862	0.017650787
232	0xbda449d4	-0.08021894
233	0xbdad2ea6	-0.08456163
234	0x3d3a315f	0.04545724
235	0xbdaefebd	-0.08544681
236	0xbca69047	-0.020332469
237	0x3d475d73	0.048673104
238	0xbd524d6b	-0.051343363
239	0xbc6a5ac4	-0.014303867
240	0xbc325fe1	-0.010887117
241	0xbce0d784	-0.027446516
242	0xbd620f44	-0.05519034
243	0xbdc0747a	-0.09397216
244	0xbdae8308	-0.08521086
245	0xbd674d06	-0.05646994
246	0x3dd01513	0.101602696
247	0xbd51949e	-0.051167123
248	0xbd8d5ced	-0.0690249
249	0x3cbe2cb1	0.02321467
250	0x3cd2b132	0.025719259
251	0x3d589c43	0.052883398
252	0x3da41648	0.08012062
253	0x3d705f1f	0.058684465
254	0xbdd61431	-0.1045307
255	0x3be7a72e	0.00706949

block1.2.bias f4 [10]
0	0x3ef227e2	0.47296053
1	0xbd30a9bb	-0.043130618
2	0xbd911fe8	-0.07086164
3	0x3ed0cca9	0.40781143
4	0xbde7f69b	-0.11326333
5	0x3cbba43b	0.02290546
6	0x3e7efb20	0.24900484
7	0x3dce8c8b	0.100854
8	0x3e875d8f	0.26438567
9	0x3d74c676	0.05975958

block2.0.weight f4 [10, 10, 3, 3]
0	0xbd083558	-0.033253998
1	0xbe11f887	-0.14254962
2	0x3c3a207f	0.011360287
3	0xbd170659	-0.036871288
4	0xbc2f0850	-0.010683134
5	0x3e593019	0.21209754
6	0xbdef9049	-0.11697442
7	0x3d9c8822	0.07643153
8	0x3e4ac1d1	0.19800498
9	0x3d69e443	0.057102453
10	0xbdc2927d	-0.09500597
11	0xbd1d6e6a	-0.038435377
12	0xbdb8ac07	-0.090171866
13	0xbd76eb39	-0.06028292
14	0x3d7a85b4	0.061162665
15	0xbc86868e	-0.016421583
16	0x3d389440	0.045063257
17	0xbd7c3ddc	-0.06158243
18	0x3c84a3f0	0.016191453
19	0xbd82cd3c	-0.063868016
20	0x3d587782	0.052848347
21	0xbd3db7db	-0.046317916
22	0xbcd97308	-0.026544109
23	0xbdbb3681	-0.09141255
24	0x3a1789ba	0.0005780716
25	0x3dcd9ed8	0.10040063
26	0x3d52c2a5	0.05145516
27	0xbe826beb	-0.2547296
28	0xbceb8ce3	-0.028753703
29	0xbdea9292	-0.11453737
30	0xbe05fa75	-0.13083823
31	0x3dc9e092	0.098572865
32	0xbe1b7ba5	-0.15183885
33	0x3e503f0e	0.20336553
34	0xbda3612a	-0.07977517
35	0xbdfccd3d	-0.123438336
36	0x3ca007da	0.019534994
37	0x3d231560	0.039815307
38	0x3cae566b	0.021281442
39	0xbd5ac2a8	-0.053408295
40	0x3de2cf69	0.110747166
41	0xbc997d81	-0.018736603
42	0xbd8c134f	-0.0683962
43	0xbd2f141b	-0.042743783
44	0x3dd02ccf	0.101647966
45	0xbd4a2654	-0.04935296
46	0xbdc35bb6	-0.09538977
47	0xbd7f8206	-0.06237986
48	0xbd3ff8fe	-0.046868317
49	0xbdc29cbb	-0.0950255
50	0xbd397a97	-0.045282926
51	0xbd3b7801	-0.04576874
52	0x3d94c658	0.072643936
53	0x3dc81573	0.09769716
54	0xbe87c442	-0.2651692
55	0x3e5285d4	0.20558864
56	0xbdd8b897	-0.10582083
57	0x3d7e360f	0.062063273
58	0x3e61f68c	0.22066706
59	0x3e01834e	0.12647745
60	0x3eb1fb69	0.34762123
61	0x3e4fde29	0.20299591
62	0x3db87bc8	0.090079844
63	0x3d2669d9	0.040628288
64	0x3dc2e16d	0.09515653
65	0xbc189200	-0.009312153
66	0xbd09e562	-0.033666022
67	0x3e176fa1	0.14788677
68	0xbda47342	-0.08029796
69	0x3d89a7ea	0.0672148
70	0xbd013e40	-0.031553507
71	0x3c0b9da5	0.008521472
72	0xbe8484a0	-0.25882435
73	0xbd8edf9a	-0.06976242
74	0xbda5db96	-0.08098523
75	0x3cbd507e	0.02310967
76	0x3e35812f	0.17725061
77	0x3ca87887	0.020565284
78	0xbbb44c86	-0.0055022864
79	0xbdc42edb	-0.095792495
80	0x3c1161bd	0.0088734
81	0x3ddfe0ec	0.10931572
82	0x3c5ac57d	0.013352749
83	0x3dec7fb0	0.11547792
84	0x3d960fd9	0.073272415
85	0x3dd91cc6	0.10601191
86	0x3d3e4c17	0.046459284
87	0x3d4652a3	0.048418652
88	0x3d8908cd	0.06691132
89	0x3da44634	0.08021203
90	0x3d330628	0.043707043
91	0xbe618c24	-0.22026116
92	0xbe8923b5	-0.26785055
93	0x3e93a42d	0.28836194
94	0xbe224cf4	-0.15849668
95	0xbc2298d9	-0.009924137
96	0x3d28b475	0.041187722
97	0x3e13db04	0.14439017
98	0xbdf514b1	-0.11966837
99	0x3d0fa9b4	0.03507395
100	0xbd1eb858	-0.038750023
101	0xbdd5f5f6	-0.10447304
102	0xbdb2e63e	-0.087353215
103	0x3d826a37	0.06367915
104	0xbd451c72	-0.04812283
105	0x3d8e49a7	0.06947642
106	0xbb16fe9f	-0.002303995
107	0x3d9b8121	0.07592989
108	0x3d7eebf1	0.06223673
109	0x3d174661	0.036932353
110	0xbd572f23	-0.052535187
111	0xbdb50608	-0.08839041
112	0x3b8401c2	0.00402853
113	0xbd7c2ffb	-0.061569195
114	0x3db11e93	0.0864841
115	0xbdce7f4b	-0.10082873
116	0x3d3f1f51	0.046660725
117	0xbe1e2aae	-0.15445969
118	0x3e86aaf7	0.2630231
119	0x3e8cfd01	0.27536777
120	0xbdcde099	-0.10052604
121	0x3f4cd5f2	0.80013955
122	0x3ea07944	0.31342518
123	0xbf3ea6d3	-0.74473304
124	0xbe3f429b	-0.18677752
125	0xbdc0769d	-0.09397624
126	0x3ce6a0d1	0.028152855
127	0x3de2ca61	0.11073757
128	0xbd98dec1	-0.07464362
129	0xbd345258	-0.04402384
130	0x3d19a3df	0.037509795
131	0xbc08a83a	-0.00834089
132	0x3cbe5ef5	0.023238638
133	0xbdd5060c	-0.10401544
134	0xbcf810b5	-0.030281404
135	0xbba68899	-0.0050822017
136	0xbeaab27e	-0.33339304
137	0xbdae7347	-0.08518081
138	0x3e610631	0.21975018
139	0x3ddf93e2	0.10916878
140	0x3cf808bf	0.030277608
141	0x3d3bdb2a	0.045863308
142	0x3e3493a8	0.17634451
143	0x3dcb6f8b	0.099333845
144	0xbf263355	-0.64922076
145	0x3cf6c028	0.030120924
146	0x3e49483f	0.19656466
147	0xbee56b87	-0.448086
148	0x3ec578ec	0.3856882
149	0x3ef1ae41	0.47203258
150	0xbeba25c1	-0.3635693
151	0xbd68b2c6	-0.056811117
152	0xbe0abe29	-0.13549103
153	0xbddd5ef7	-0.10809129
154	0xbed40e6e	-0.4141726
155	0x3d136d9c	0.035993204
156	0xbe83411d	-0.25635615
157	0x3c61c03d	0.013778743
158	0xbd81518f	-0.06314384
159	0xbe8a60d8	-0.2702701
160	0xbd597a57	-0.053095188
161	0xbdd23a21	-0.102649935
162	0xbef54fa3	-0.4791232
163	0x3c4dcdbc	0.012561258
164	0x3ec17273	0.3778263
165	0xbdd4db21	-0.10393358
166	0x3eab89e1	0.3350363
167	0x3e9f08fc	0.31061542
168	0xbe7ce570	-0.24696898
169	0xbde860f8	-0.1134662
170	0xbe1b07b9	-0.15139665
171	0x3e7e99b0	0.24863315
172	0xbd756776	-0.05991312
173	0xbe8de1ed	-0.2771143
174	0x3de97de1	0.114009626
175	0x3cdec0e7	0.027191592
176	0xbe4324f1	-0.19057061
177	0xbe2b4f31	-0.16729428
178	0x3d951512	0.072794095
179	0x3e14fdba	0.14549914
180	0xbd4844e7	-0.048893835
181	0x3d89e826	0.06733732
182	0x3d6b3649	0.057424817
183	0xbdc22401	-0.094795235
184	0xbdd2f8b1	-0.1030134
185	0xbdc79097	-0.09744375
186	0xbda5447c	-0.08069703
187	0xbd385f3b	-0.045012694
188	0xbc89135b	-0.016732862
189	0xbcce3ef6	-0.025176506
190	0xbd5b7759	-0.053580616
191	0xbd04edf0	-0.032453477
192	0xbd1eb9ba	-0.03875134
193	0x3ddefdc3	0.10888245
194	0xbcff4cee	-0.031164613
195	0xbd9b3ca6	-0.07579927
196	0x3d3198e1	0.043358687
197	0xbb32a1c0	-0.0027257055
198	0x3da53ec6	0.08068614
199	0x3d86e3ba	0.06586404
200	0x3dc6a566	0.09699516
201	0xbd9e1e78	-0.07720655
202	0x3d8ac26c	0.06775364
203	0x3db530e3	0.08847215
204	0xbd555ca7	-0.052090313
205	0x3dc6574a	0.09684618
206	0x3da1d148	0.07901245
207	0xbc46df9d	-0.0121382745
208	0x3d929446	0.07157187
209	0xbc0790d0	-0.008274272
210	0xbdd1c10c	-0.10241899
211	0x3d576ec0	0.052595854
212	0x3d4694dc	0.048481807
213	0xbdd429d4	-0.103595406
214	0x3baf8a66	0.0053570746
215	0xbe14b872	-0.14523485
216	0x3dab0c9f	0.08352017
217	0x3dcc1976	0.09965794
218	0x3c6cff2e	0.014465136
219	0xbd8616c8	-0.06547314
220	0x3d762d0b	0.06010155
221	0x3c414419	0.011796021
222	0x3c776250	0.015099123
223	0x3ce39c9e	0.027784642
224	0x3d7949e3	0.06086148
225	0xbd3ca0df	-0.046051856
226	0xbd141663	-0.036154162
227	0x3cb2a581	0.021807434
228	0x3c32b223	0.010906729
229	0x3dd3eef3	0.1034831
230	0xbc65815f	-0.014007895
231	0xbc7b35ef	-0.015332683
232	0x3d07c15d	0.03314339
233	0xbb397701	-0.0028299692
234	0x3d86fa00	0.065906525
235	0xbc00e1bd	-0.00786632
236	0xbdb52839	-0.088455625
237	0xbc9acfcb	-0.018897912
238	0xbd335299	-0.043779943
239	0x3ce515e4	0.02796454
240	0xbd3758a2	-0.04476226
241	0xbe0162ce	-0.12635347
242	0xbd5a494f	-0.05329257
243	0xbc507eac	-0.012725513
244	0xbd2959ab	-0.04134528
245	0x3da3061b	0.07960149
246	0xbcb47345	-0.022027621
247	0x3d9defb3	0.077117346
248	0x3cd05152	0.025429402
249	0xbdd19e15	-0.1023523
250	0x3c9b4a0e	0.01895621
251	0x3d917205	0.071018256
252	0xbdb4e6fd	-0.0883312
253	0xbd8b06e5	-0.067884244
254	0x3de0f775	0.10984699
255	0x3d920bfb	0.07131191

block2.0.bias f4 [10]
0	0xbe1da843	-0.15396218
1	0x3e213d76	0.15746102
2	0xbd22fd74	-0.039792493
3	0xbe30620c	-0.17224902
4	0xbd66a105	-0.056305904
5	0x3cb9e8bc	0.022693984
6	0x3e5944af	0.21217607
7	0x3ee075a8	0.43839765
8	0x3f3bdee9	0.7338701
9	0xbdbf587b	-0.09343048

block2.2.weight f4 [10, 10, 3, 3]
0	0xbe2e767c	-0.17037386
1	0xbe3c0026	-0.18359432
2	0xbe1899a8	-0.14902365
3	0xbc6f27e0	-0.014596909
4	0x3d3dcf0d	0.046340037
5	0x3db4da17	0.0883066
6	0x3cc9a691	0.024615558
7	0xbe3d7981	-0.18503381
8	0x3e359958	0.17734277
9	0x3d91c2c5	0.071172275
10	0xbea65a19	-0.32490614
11	0xbe0e104b	-0.13873403
12	0xbe138ba1	-0.14408733
13	0xbb8e48e6	-0.0043421863
14	0xbeb48cfa	-0.35263807
15	0x3e994e95	0.29942766
16	0x3e0c850e	0.13722631
17	0xbf44a8fd	-0.76820356
18	0x3d182afc	0.037150368
19	0x3b201d65	0.0024431583
20	0x3da8075e	0.0820453
21	0xbdc1b49a	-0.09458275
22	0x3d84987a	0.06474395
23	0x3c8d1063	0.017219728
24	0xbb9ed00b	-0.004846578
25	0x3da2a02d	0.07940707
26	0xbdce7315	-0.10080544
27	0xbe1279e0	-0.14304304
28	0x3dbf2330	0.09332883
29	0x3a9a5fe3	0.0011777844
30	0x3e0e76b9	0.13912477
31	0x3c42ad10	0.011882082
32	0xbe4b1e4d	-0.19835778
33	0x3dc57dc6	0.0964313
34	0x3db13e35	0.08654443
35	0xbe6c2ef9	-0.23064794
36	0xbd4e3829	-0.050346527
37	0x3b9f2b6d	0.0048574717
38	0xbbff6b24	-0.0077947546
39	0xbc96b382	-0.018396143
40	0xbd164d09	-0.03669456
41	0xbd2aeb53	-0.04172833
42	0xbd324d13	-0.043530535
43	0xbd5d10ce	-0.053971104
44	0xbe3a41ae	-0.18189117
45	0xbd9b0f71	-0.075713046
46	0xbd851713	-0.06498542
47	0x3e05e60d	0.13076039
48	0xbbeace2e	-0.007165692
49	0x3d0efd14	0.034909323
50	0x3d8fc4eb	0.07019981
51	0xbc0d727d	-0.008633253
52	0xbd12a7c5	-0.03580453
53	0xbdbb8665	-0.09156493
54	0xbeee122b	-0.46498236
55	0xbd5d2097	-0.05398616
56	0xbf1ca436	-0.61188066
57	0xbe9982ef	-0.29982707
58	0x3e4e80a5	0.20166261
59	0x3e8a11f0	0.2696681
60	0xbe9bbd47	-0.30417845
61	0x3e40e600	0.18837738
62	0x3ea21db8	0.316633
63	0x3eb4ac2c	0.35287607
64	0x3df469d2	0.11934246
65	0xbdeeef56	-0.116667435
66	0x3c257ea2	0.010100992
67	0xbd50fdb4	-0.0510232
68	0xbd9f02a2	-0.07764174
69	0xba970854	-0.0011522868
70	0xbe908d98	-0.28233027
71	0x3cf93748	0.030421868
72	0x3ed56f9d	0.41686717
73	0x3d0b01ae	0.03393715
74	0x3d94a774	0.07258502
75	0xbdfefb43	-0.12450268
76	0xbec72b4a	-0.38900214
77	0x3e245fd3	0.16052179
78	0xbebc0902	-0.36725622
79	0xbeb9cdb0	-0.3628974
80	0xbe219812	-0.15780666
81	0xbde0935b	-0.10965606
82	0x3db6d409	0.08927161
83	0xbcd93084	-0.026512392
84	0x3c0f5d87	0.008750326
85	0xbcffa0a3	-0.031204527
86	0xbdb0d269	-0.086338826
87	0xbc59c703	-0.013292077
88	0xbd928588	-0.07154375
89	0xbddad990	-0.10686028
90	0x3da8e743	0.08247235
91	0x3d6962b9	0.056978915
92	0xbd6c38f1	-0.05767149
93	0xbd9a0069	-0.075196095
94	0x3dde988f	0.10868942
95	0xbe15b77f	-0.1462078
96	0x3e7345d6	0.23757109
97	0xbd0d76d1	-0.03453714
98	0xbd9618fd	-0.07328985
99	0xbe26ef27	-0.16302167
100	0x3e5fb2f9	0.21845616
101	0xbdba3f21	-0.09094072
102	0xbe17e056	-0.14831671
103	0xbed09802	-0.40740973
104	0x3ebce104	0.36890423
105	0x3d586133	0.05282707
106	0xbf1f2b85	-0.6217578
107	0x3e8c38bd	0.27387038
108	0xbba95f69	-0.0051688445
109	0xb9b60b3b	-0.00034722112
110	0x3da77a8a	0.08177669
111	0x3d4e0509	0.05029777
112	0xbdba76b4	-0.09104672
113	0xbce357b8	-0.027751788
114	0xbd4576bc	-0.048208937
115	0xbe134cdc	-0.14384788
116	0xbd62cb7b	-0.055369835
117	0x3da306fd	0.07960317
118	0xbd9f7b06	-0.07787137
119	0x3dda41f7	0.10657113
120	0x3e9c1b7c	0.3048972
121	0xbeae1a2e	-0.3400435
122	0xbe45d563	-0.19319682
123	0x3e6e0dc9	0.23247446
124	0xbe56de6e	-0.20983288
125	0xbddaf102	-0.106905
126	0xbb9557f3	-0.0045576035
127	0x3beb4f61	0.0071810936
128	0x3cbeb704	0.023280628
129	0xbbcf1b04	-0.006320359
130	0xbe0258b3	-0.12729149
131	0x3cb903ad	0.02258476
132	0x3c4e0061	0.0125733325
133	0xbe12690e	-0.14297888
134	0xbdfc3466	-0.12314682
135	0xbaa0608c	-0.0012235804
136	0x3d93b6a7	0.072125725
137	0x3da4be9a	0.08044167
138	0xbd7faf2e	-0.062422924
139	0xbdb91cd7	-0.09038704
140	0x3d08f92a	0.033440746
141	0x3c9f28e8	0.019428685
142	0x3d1b1623	0.037862908
143	0xbb4eeb39	-0.003157331
144	0xbcb17376	-0.021661501
145	0xbe8fd33f	-0.28090855
146	0x3e41d1f1	0.18927743
147	0xbd086916	-0.033303343
148	0xbe639422	-0.22224477
149	0x3e92f03d	0.28698912
150	0x3e3f316f	0.18671201
151	0xbe695a77	-0.22788416
152	0xbdc3d67b	-0.09562393
153	0xbe440fb7	-0.1914662
154	0xbe6d11c7	-0.23151313
155	0x3ddb1605	0.10697559
156	0xbd77904d	-0.06044035
157	0xbebea12d	-0.37232342
158	0x3e2a686b	0.16641395
159	0x3d72b16e	0.05925124
160	0xbf0feb3a	-0.562183
161	0x3e97f1cc	0.29676664
162	0xbe5b0e1a	-0.21392098
163	0xbdcbff89	-0.09960849
164	0xbe986637	-0.29765484
165	0x3e06a698	0.13149488
166	0x3e4e3443	0.20137124
167	0xbede9a07	-0.4347689
168	0x3e47579d	0.19467016
169	0x3e120886	0.14261064
170	0xbdd66200	-0.10467911
171	0xbe06cb0c	-0.13163394
172	0xbcf3fb74	-0.029782988
173	0x3e4e3442	0.20137122
174	0xbe110b1f	-0.14164399
175	0xbe707cc8	-0.234851
176	0x3cc2e72b	0.02379187
177	0xbd5076ec	-0.050894663
178	0xbe0063c2	-0.12538055
179	0xbdd7705a	-0.10519476
180	0x3db20f2a	0.086942986
181	0x3b58e262	0.003309392
182	0xbd82f172	-0.06393708
183	0xbda64f77	-0.081206255
184	0xbd52e2cd	-0.051485825
185	0xbe7dacda	-0.24772969
186	0xbb9c5e54	-0.004771987
187	0x3d73912a	0.05946461
188	0xbe214e7a	-0.15752593
189	0xbf27ce9a	-0.65549624
190	0xbe2bc906	-0.16775903
191	0xbecd1e78	-0.40062308
192	0xbe63ed10	-0.22258401
193	0x3ed9c8df	0.42536065
194	0xbe1010bb	-0.14068882
195	0xbe2891ec	-0.16461915
196	0x3e70bbb9	0.2350911
197	0x3f0bc93c	0.54603934
198	0x3b2a8d27	0.0026024075
199	0xbc7a3367	-0.015271044
200	0xbcb7dd48	-0.022444382
201	0xbb4f6159	-0.0031643717
202	0x3d4ec166	0.050477408
203	0x3d858360	0.065191984
204	0x3c78beb8	0.01518219
205	0xbd51f475	-0.051258523
206	0x3d84ba37	0.0648083
207	0xbf0078ef	-0.5018453
208	0x3d9bde1f	0.076107256
209	0x3df6ecd4	0.1205689
210	0x3e49d0fb	0.19708626
211	0x3c87382c	0.016506277
212	0xbe102d9a	-0.14079896
213	0x3dbe6251	0.09296096
214	0xbd856f81	-0.06515408
215	0xbda3d984	-0.08000472
216	0x3d947e7d	0.07250688
217	0xbdc6294c	-0.096758455
218	0xbdcd250b	-0.10016831
219	0xbd077c45	-0.033077497
220	0x3d94b82e	0.07261692
221	0xbddf9365	-0.10916785
222	0x3da7371f	0.081648104
223	0x3d78ad6b	0.06071226
224	0x3d3208a5	0.043465275
225	0x3dbefc2c	0.09325442
226	0xbb14f033	-0.0022726178
227	0xbe035d45	-0.12828548
228	0x3db77857	0.089585
229	0x3b4c046c	0.0031130565
230	0xbd0cc683	-0.034369003
231	0xbd3b64f3	-0.04575057
232	0xbc5b2bee	-0.013377173
233	0xbda180ff	-0.07885932
234	0xbf44a2c0	-0.76810837
235	0xbea4be28	-0.32176328
236	0x3e7bdc94	0.24595863
237	0xbefeb7a7	-0.4974949
238	0xbe6d06b0	-0.23147082
239	0xbdf5bb44	-0.11998609
240	0xbe617098	-0.22015607
241	0xbc958eba	-0.018256534
242	0x3e5cffcd	0.21581955
243	0x3de6c11c	0.112673014
244	0x3ef521d5	0.47877374
245	0x3ccec569	0.025240617
246	0xbe189b61	-0.14903022
247	0x3e0789f9	0.13236226
248	0xbe3f5f32	-0.18688658
249	0x3d136f08	0.03599456
250	0xbe3a412f	-0.18188928
251	0xbd925020	-0.07144189
252	0xbe1b59b6	-0.15170941
253	0xbd80c0c8	-0.0628677
254	0xbd2bbb1b	-0.041926485
255	0xbde14c90	-0.11000931

block2.2.bias f4 [10]
0	0x3e961a80	0.29317093
1	0x3dab7130	0.08371198
2	0x3e57f4e4	0.21089512
3	0x3db17ef7	0.08666795
4	0xbd151d39	-0.036404822
5	0x3edff90f	0.43744704
6	0x3d8b4ab3	0.06801357
7	0xbdcffe48	-0.10155922
8	0xbccb4226	-0.024811815
9	0xbe48d2d6	-0.19611678

classifier.1.weight f4 [10, 490]
0	0x3b03d1a5	0.0020113972
1	0xbdedd142	-0.116121784
2	0x3e111e0f	0.14171623
3	0xbdd81fdf	-0.10552954
4	0x3da79219	0.08182163
5	0x3ccf1432	0.025278185
6	0x3d3336dd	0.043753494
7	0x3d819b6f	0.06328475
8	0x3e842e65	0.25816646
9	0x3d3f77bb	0.046745043
10	0xbe56bc3b	-0.20970242
11	0x3e0b9b99	0.13633575
12	0x3d0ae673	0.03391118
13	0x3ce3f6d9	0.027827667
14	0x3cb4a8b7	0.022053106
15	0x3d2ec531	0.042668525
16	0x3e1e6703	0.15468983
17	0xbde00e9c	-0.109402865
18	0x3d29a2e0	0.041415095
19	0x3d4f8cca	0.050671376
20	0xbe1144b8	-0.1418637
21	0xbce0c249	-0.027436392
22	0x3e072ea7	0.1320139
23	0x3d61874d	0.055060674
24	0x3d0bde05	0.03414728
25	0x3e1b49d8	0.15164888
26	0x3d92e294	0.071721226
27	0xbdd9a1c9	-0.10626561
28	0xbd9e6889	-0.07734782
29	0x3cf1085c	0.029422931
30	0xbd957dce	-0.07299386
31	0x3b29fc12	0.00259376
32	0x3e0a23ad	0.13490172
33	0xbe221cb1	-0.15831257
34	0x3c744bf1	0.014910684
35	0x3cec045c	0.028810672
36	0xbe1e4adf	-0.15458249
37	0xbb0d49af	-0.0021558811
38	0xbe3564ad	-0.17714186
39	0xbd5e545d	-0.054279674
40	0x3de592f1	0.112096675
41	0xbdad1ebc	-0.08453128
42	0x3d71cf28	0.05903545
43	0xbe0c95df	-0.13729046
44	0xbe3f32f8	-0.18671787
45	0x3d002c62	0.031292327
46	0xbd7b223c	-0.061311945
47	0x3e8f5e2b	0.28001532
48	0xbdc0b9cc	-0.09410438
49	0x3e4dfbae	0.2011554
50	0x3e2ab940	0.1667223
51	0xbe366f22	-0.17815831
52	0xbe06053c	-0.13087934
53	0x3afa62fc	0.0019102986
54	0xbdc8c15c	-0.098025054
55	0x3e09881c	0.13430828
56	0x3ddcbc86	0.107781455
57	0xbcdc496b	-0.026890477
58	0xbe3ba209	-0.1832353
59	0xbd2c7bb8	-0.042110175
60	0x3cd002ea	0.025392015
61	0x3d8e0ff6	0.06936638
62	0xbd0e883a	-0.034797885
63	0x3cf6a78f	0.030109195
64	0x3e0a62b9	0.13514222
65	0xbe2baa1c	-0.1676411
66	0xbd4fe906	-0.050759338
67	0xbd2c46c4	-0.042059675
68	0x3e21fea4	0.15819794
69	0x3dc42fa6	0.09579401
70	0x3dd7e8fe	0.105424866
71	0x3d1a9cdf	0.03774726
72	0x3a69980f	0.0008910903
73	0xbe1177a3	-0.14205794
74	0xbdbe7973	-0.09300508
75	0x3e5ffd40	0.21873951
76	0xbd185faa	-0.037200607
77	0x3d7efda0	0.062253594
78	0xbd0997a8	-0.033591896
79	0xbd35620c	-0.044282958
80	0xbe12f71e	-0.1435208
81	0x3d8a937c	0.06766412
82	0x3e59803f	0.21240328
83	0xbda25952	-0.07927193
84	0xbe31c8b9	-0.17361726
85	0x3cb6c4cf	0.022310643
86	0xbe3a1782	-0.1817303
87	0xbe272425	-0.16322382
88	0x3c57c8aa	0.013170401
89	0xbcf54e22	-0.029944483
90	0x3d3b9f0a	0.04580597
91	0xbddcda98	-0.10783881
92	0xbd00c031	-0.031433288
93	0x3e116a3d	0.14200683
94	0xbcbc2c3a	-0.022970308
95	0xbd730113	-0.059327196
96	0xbd38d3b2	-0.045123763
97	0x3dbb80ad	0.09155402
98	0x3d3676b7	0.04454681
99	0xbd51d42e	-0.05122774
100	0x3d8d7b0d	0.06908236
101	0x3c2a5468	0.010396101
102	0x3e3db481	0.18525888
103	0x3e49ee7a	0.19719878
104	0xb9f974a2	-0.0004757988
105	0x3e604c18	0.21904027
106	0x3dee0510	0.11622059
107	0xbc438c68	-0.011935331
108	0x3d136580	0.03598547
109	0xbd11f2c3	-0.035631906
110	0x3e64b7b3	0.223357
111	0x3d23e352	0.04001171
112	0x3db5fdb0	0.08886278
113	0x3e604b38	0.21903694
114	0x3eb3c7b7	0.35113308
115	0xbb94f9e7	-0.0045463922
116	0x3d6e055a	0.058110572
117	0xbc2c1d19	-0.010504984
118	0xbb94cdd5	-0.0045411387
119	0xba441171	-0.00074794056
120	0xbe08c6d5	-0.13357098
121	0x3b05c7a7	0.0020413192
122	0xbd758620	-0.059942365
123	0xbb8412c8	-0.004030559
124	0x3dfb41d0	0.12268412
125	0xbd3bbfb1	-0.045837108
126	0xbe546448	-0.2074138
127	0xbd537fff	-0.05163574
128	0x3d1a6d55	0.037701923
129	0xbd4c31b9	-0.049852107
130	0xbdbafe6f	-0.091305606
131	0xbc22422a	-0.00990347
132	0x3d0d2f5f	0.034469005
133	0xbde62939	-0.11238331
134	0x3df180ab	0.117921196
135	0x3daf4db7	0.08559745
136	0xbdf38f5f	-0.1189258
137	0xbe0516a0	-0.12996912
138	0xbdcb507f	-0.09927463
139	0x3cc7cc54	0.024389423
140	0xbdd45d2a	-0.10369332
141	0x3db71ad3	0.08940663
142	0xbbc444a4	-0.005989628
143	0xbdb63f6f	-0.08898818
144	0xbc6db4ac	-0.014508408
145	0xbdd463eb	-0.1037062
146	0xbd904f5b	-0.07046386
147	0x3e06c815	0.13162263
148	0xbdff7e41	-0.12475253
149	0xbd8fc647	-0.0702024
150	0xbc394418	-0.011307739
151	0x3dbf1427	0.09330016
152	0x3d2ee9de	0.042703502
153	0xbd2aa0fd	-0.041657437
154	0xbe174645	-0.147729
155	0xbd0c0cdf	-0.034191962
156	0xbd0005db	-0.031255584
157	0xbbfe6ca7	-0.007764417
158	0xbb95fd95	-0.0045773485
159	0xbe18b653	-0.14913301
160	0xbdfddf02	-0.12396051
161	0xbe3a0521	-0.18166019
162	0xbd8bc13a	-0.068239644
163	0xbb38c856	-0.0028195581
164	0x3c4f9c3a	0.012671525
165	0xbd8aee03	-0.067836784
166	0xbda24c60	-0.079247236
167	0x3d691cc5	0.056912202
168	0x3b0658a6	0.0020499616
169	0x3dee5987	0.1163817
170	0xbb10778a	-0.0022043907
171	0x3d563ed7	0.052306022
172	0x3c69cf0c	0.014270555
173	0x3b4a112e	0.0030832994
174	0x3e10b6a9	0.1413218
175	0x3c155d66	0.009116506
176	0x3e7e7d41	0.24852468
177	0xbc99755f	-0.018732725
178	0xbd59cc4e	-0.053173356
179	0xbd264579	-0.040593598
180	0xbd85d106	-0.06534009
181	0x3e3c3fcf	0.18383716
182	0xbd12f29f	-0.035875913
183	0x3e70a102	0.2349892
184	0x3bfd4264	0.0077288616
185	0xbda89c5b	-0.082329474
186	0xbb9cea57	-0.0047886777
187	0xbcb7ff9a	-0.022460748
188	0x3e0255bd	0.12728019
189	0x3b12b62f	0.0022386422
190	0x3ceb9636	0.02875815
191	0x3ca8f7ae	0.020625915
192	0xbd41ced6	-0.047316395
193	0xbdb90bee	-0.090354785
194	0xbd58ab21	-0.052897576
195	0x3d547360	0.051867843
196	0xbc3ade29	-0.011405506
197	0x3c608371	0.013703213
198	0xbca3835c	-0.019960098
199	0xbc9047df	-0.017612396
200	0x3d34ed7a	0.044171788
201	0x3d1221af	0.035676654
202	0xbcd1ad35	-0.025595287
203	0x3c071a34	0.008245993
204	0xbd2673aa	-0.04063765
205	0x3e3710c8	0.17877495
206	0x3e4abcfb	0.19798653
207	0x3da4451c	0.08020994
208	0xbdbf44bd	-0.09339283
209	0xbd2595d0	-0.040426075
210	0x3da44ea9	0.08022816
211	0x3dc322af	0.095281
212	0x3cd87b66	0.026426028
213	0x3e235b0e	0.15952703
214	0x3d83c5b3	0.064341925
215	0x3e8e28e3	0.2776557
216	0x3e0625ad	0.1310031
217	0x3e02043c	0.12696928
218	0xbc29a114	-0.010353345
219	0xbe39d5cc	-0.18147963
220	0xbba0ba0b	-0.0049049906
221	0x3d93cd5a	0.07216902
222	0x3e2233e3	0.15840106
223	0x3d7fb6ab	0.062430065
224	0x3d3b396c	0.04570906
225	0xbd9811d7	-0.07425278
226	0xbdf371d0	-0.118869424
227	0x3d1a4ecb	0.0376728
228	0xbd0e5471	-0.0347485
229	0xbd80f82b	-0.06297334
230	0xbd343d55	-0.044003803
231	0x3ad8547b	0.0016504669
232	0xbdd569ae	-0.104205474
233	0xbc6a4d75	-0.014300694
234	0x3bb30e38	0.0054643415
235	0x3c906722	0.017627303
236	0xbbc7b44d	-0.0060944916
237	0xbdb5ca3e	-0.08876465
238	0xbd0948c3	-0.033516657
239	0xbc7e650d	-0.015527022
240	0x3d87780f	0.06614696
241	0xbbfcb203	-0.0077116503
242	0xbdb897e0	-0.09013343
243	0xbd23e7b6	-0.0400159
244	0xbd1b5a1b	-0.03792773
245	0xbccf9fbd	-0.025344724
246	0x3e10b4b5	0.14131434
247	0x3d5544f3	0.05206771
248	0x3d5c7a2d	0.053827453
249	0x3e19d870	0.1502397
250	0x3ea39326	0.31948203
251	0x3dc263d6	0.094916984
252	0xbd138bf9	-0.03602216
253	0xbd0ce086	-0.03439381
254	0x3d9ed80f	0.07756054
255	0x3e340cc8	0.17583

classifier.1.bias f4 [10]
0	0x3db50118	0.08838099
1	0xbe0f8ec0	-0.14019299
2	0x3ed4f49a	0.41592866
3	0xbd860a17	-0.06544893
4	0xbeb05ffe	-0.34448236
5	0xbe164c39	-0.14677514
6	0x3e00161b	0.12508433
7	0x3c27d96a	0.010244707
8	0x3e134149	0.14380373
9	0xbdfca874	-0.123368174
